Run dir: /home/michraf/Thesis/results/20260519_194926_baseline_opt_bs32
Loaded 2203/2204 samples with embeddings
Loaded 266/266 samples with embeddings

==================================================
EXPERIMENT:  baseline_opt_bs32
==================================================
Baseline experiment after the hyperparameter optimization. 


==================================================
MODEL ARCHITECTURE & PARAMETERS
==================================================
CoAttentionClassifier(
  (audio_proj): Linear(in_features=1024, out_features=512, bias=True)
  (text_proj): Linear(in_features=768, out_features=512, bias=True)
  (layers): ModuleList(
    (0-2): 3 x CoAttentionBlock(
      (audio_attn): MultiheadAttention(
        (out_proj): NonDynamicallyQuantizableLinear(in_features=512, out_features=512, bias=True)
      )
      (text_attn): MultiheadAttention(
        (out_proj): NonDynamicallyQuantizableLinear(in_features=512, out_features=512, bias=True)
      )
      (ffn_a): Sequential(
        (0): Linear(in_features=512, out_features=2048, bias=True)
        (1): GELU(approximate='none')
        (2): Dropout(p=0.4, inplace=False)
        (3): Linear(in_features=2048, out_features=512, bias=True)
      )
      (ffn_t): Sequential(
        (0): Linear(in_features=512, out_features=2048, bias=True)
        (1): GELU(approximate='none')
        (2): Dropout(p=0.4, inplace=False)
        (3): Linear(in_features=2048, out_features=512, bias=True)
      )
      (norm_a1): LayerNorm((512,), eps=1e-05, elementwise_affine=True)
      (norm_t1): LayerNorm((512,), eps=1e-05, elementwise_affine=True)
      (norm_a2): LayerNorm((512,), eps=1e-05, elementwise_affine=True)
      (norm_t2): LayerNorm((512,), eps=1e-05, elementwise_affine=True)
    )
  )
  (classifier): Sequential(
    (0): Linear(in_features=1024, out_features=512, bias=True)
    (1): GELU(approximate='none')
    (2): Dropout(p=0.4, inplace=False)
    (3): Linear(in_features=512, out_features=3, bias=True)
  )
)
--------------------------------------------------
Total parameters:     20,359,171
Trainable parameters: 20,359,171
Non-trainable params: 0
==================================================


========================================
Run 1/5 (seed=24)
========================================
  Epoch 01/30 | loss 0.7368 | train UAR 0.3713 | val UAR 0.3828
…
