Run dir: /home/michraf/Thesis/results/20260519_142911_test
Loaded 2203/2204 samples with embeddings
Loaded 266/266 samples with embeddings

==================================================
MODEL ARCHITECTURE & PARAMETERS
==================================================
CoAttentionClassifier(
  (audio_proj): Linear(in_features=1024, out_features=256, bias=True)
  (text_proj): Linear(in_features=768, out_features=256, bias=True)
  (layers): ModuleList(
    (0-1): 2 x CoAttentionBlock(
      (audio_attn): MultiheadAttention(
        (out_proj): NonDynamicallyQuantizableLinear(in_features=256, out_features=256, bias=True)
      )
      (text_attn): MultiheadAttention(
        (out_proj): NonDynamicallyQuantizableLinear(in_features=256, out_features=256, bias=True)
      )
      (ffn_a): Sequential(
        (0): Linear(in_features=256, out_features=1024, bias=True)
        (1): GELU(approximate='none')
        (2): Dropout(p=0.1, inplace=False)
        (3): Linear(in_features=1024, out_features=256, bias=True)
      )
      (ffn_t): Sequential(
        (0): Linear(in_features=256, out_features=1024, bias=True)
        (1): GELU(approximate='none')
        (2): Dropout(p=0.1, inplace=False)
        (3): Linear(in_features=1024, out_features=256, bias=True)
      )
      (norm_a1): LayerNorm((256,), eps=1e-05, elementwise_affine=True)
      (norm_t1): LayerNorm((256,), eps=1e-05, elementwise_affine=True)
      (norm_a2): LayerNorm((256,), eps=1e-05, elementwise_affine=True)
      (norm_t2): LayerNorm((256,), eps=1e-05, elementwise_affine=True)
    )
  )
  (classifier): Sequential(
    (0): Linear(in_features=512, out_features=256, bias=True)
    (1): GELU(approximate='none')
    (2): Dropout(p=0.1, inplace=False)
    (3): Linear(in_features=256, out_features=3, bias=True)
  )
)
--------------------------------------------------
Total parameters:     3,750,403
Trainable parameters: 3,750,403
Non-trainable params: 0
==================================================


========================================
Run 1/2 (seed=24)
========================================
/home/michraf/miniconda3/envs/cuda_legacy/lib/python3.10/site-packages/sklearn/metrics/_classification.py:1731: UndefinedMetricWarning: Precision is ill-defined and being set to 0.0 in labels with no predicted samples. Use `zero_division` parameter to control this behavior.
…
