…
Total parameters:     1,224,836
Trainable parameters: 1,224,836
Non-trainable params: 0
==================================================


==================================================
WORST-CASE VRAM PROJECTION (Batch Size: 16, Max Seq Len: 403)
==================================================
===============================================================================================
Layer (type:depth-idx)                        Output Shape              Param #
===============================================================================================
ConGrAD                                       [16, 3]                   --
├─Linear: 1-1                                 [16, 403, 128]            131,200
├─Linear: 1-2                                 [16, 403, 128]            98,432
├─ModuleList: 1-3                             --                        --
│    └─CoAttentionBlock: 2-1                  [16, 403, 128]            --
│    │    └─MultiheadAttention: 3-1           [16, 403, 128]            66,048
│    │    └─MultiheadAttention: 3-2           [16, 403, 128]            66,048
│    │    └─LayerNorm: 3-3                    [16, 403, 128]            256
│    │    └─LayerNorm: 3-4                    [16, 403, 128]            256
│    │    └─Sequential: 3-5                   [16, 403, 128]            131,712
│    │    └─LayerNorm: 3-6                    [16, 403, 128]            256
│    │    └─Sequential: 3-7                   [16, 403, 128]            131,712
│    │    └─LayerNorm: 3-8                    [16, 403, 128]            256
│    └─CoAttentionBlock: 2-2                  [16, 403, 128]            --
│    │    └─MultiheadAttention: 3-9           [16, 403, 128]            66,048
│    │    └─MultiheadAttention: 3-10          [16, 403, 128]            66,048
│    │    └─LayerNorm: 3-11                   [16, 403, 128]            256
│    │    └─LayerNorm: 3-12                   [16, 403, 128]            256
│    │    └─Sequential: 3-13                  [16, 403, 128]            131,712
│    │    └─LayerNorm: 3-14                   [16, 403, 128]            256
│    │    └─Sequential: 3-15                  [16, 403, 128]            131,712
│    │    └─LayerNorm: 3-16                   [16, 403, 128]            256
├─Linear: 1-4                                 [16, 403, 128]            32,896
├─RGAT: 1-5                                   [6448, 128]               --
│    └─ModuleList: 2-5                        --                        (recursive)
│    │    └─RGATConv: 3-17                    [6448, 128]               67,840
│    └─Dropout: 2-4                           [6448, 128]               --
│    └─ModuleList: 2-5                        --                        (recursive)
│    │    └─RGATConv: 3-18                    [6448, 128]               67,840
│    └─Dropout: 2-6                           [6448, 128]               --
├─Linear: 1-6                                 [0, 1]                    257
├─Sequential: 1-7                             [16, 3]                   --
│    └─Linear: 2-7                            [16, 128]                 32,896
│    └─GELU: 2-8                              [16, 128]                 --
│    └─Dropout: 2-9                           [16, 128]                 --
│    └─Linear: 2-10                           [16, 3]                   387
===============================================================================================
Total params: 1,224,836
Trainable params: 1,224,836
Non-trainable params: 0
Total mult-adds (M): 13.20
===============================================================================================
Input size (MB): 46.28
Forward/backward pass size (MB): 204.70
Params size (MB): 3.30
Estimated Total Size (MB): 254.28
…
